…
from dataset RNA: defaultdict(<bound method Vocab._default_unk_index of <torchtext.vocab.Vocab object at 0x2b5434dbd2b0>>, {'<unk>': 0, '<pad>': 1, 'A': 2, 'G': 3, 'C': 4, 'T': 5, 'N': 6, 'Y': 7, 'R': 8, 'M': 9, 'S': 10})
from dataset Protein: defaultdict(<bound method Vocab._default_unk_index of <torchtext.vocab.Vocab object at 0x2b54469d8a20>>, {'<unk>': 0, '<pad>': 1, '<sos>': 2, '<eos>': 3, 'L': 4, 'S': 5, 'A': 6, 'G': 7, 'E': 8, 'R': 9, 'K': 10, 'P': 11, 'V': 12, 'T': 13, 'Q': 14, 'D': 15, 'I': 16, 'F': 17, 'N': 18, 'C': 19, 'Y': 20, 'M': 21, 'H': 22, 'W': 23, '<NC>': 24, '<PC>': 25, 'X': 26, 'U': 27})
Building directory ...
NMTModel(
  (encoder): TransformerEncoder(
    (embeddings): Embeddings(
      (make_embedding): Sequential(
        (emb_luts): Elementwise(
          (0): Embedding(11, 64, padding_idx=1)
        )
        (pe): PositionalEncoding(
          (dropout): Dropout(p=0, inplace=False)
        )
      )
    )
    (transformer): ModuleList(
      (0): TransformerEncoderLayer(
        (self_attn): MultiHeadedAttention(
          (linear_keys): Linear(in_features=64, out_features=64, bias=True)
          (linear_values): Linear(in_features=64, out_features=64, bias=True)
          (linear_query): Linear(in_features=64, out_features=64, bias=True)
          (softmax): Softmax(dim=-1)
          (dropout): Dropout(p=0.1, inplace=False)
          (final_linear): Linear(in_features=64, out_features=64, bias=True)
          (relative_positions_embeddings): Embedding(17, 8)
        )
        (feed_forward): PositionwiseFeedForward(
          (w_1): Linear(in_features=64, out_features=2048, bias=True)
          (w_2): Linear(in_features=2048, out_features=64, bias=True)
          (layer_norm): LayerNorm((64,), eps=1e-06, elementwise_affine=True)
          (dropout_1): Dropout(p=0.1, inplace=False)
          (relu): ReLU()
          (dropout_2): Dropout(p=0.1, inplace=False)
        )
        (layer_norm): LayerNorm((64,), eps=1e-06, elementwise_affine=True)
        (dropout): Dropout(p=0.1, inplace=False)
      )
      (1): TransformerEncoderLayer(
        (self_attn): MultiHeadedAttention(
          (linear_keys): Linear(in_features=64, out_features=64, bias=True)
          (linear_values): Linear(in_features=64, out_features=64, bias=True)
          (linear_query): Linear(in_features=64, out_features=64, bias=True)
          (softmax): Softmax(dim=-1)
          (dropout): Dropout(p=0.1, inplace=False)
          (final_linear): Linear(in_features=64, out_features=64, bias=True)
          (relative_positions_embeddings): Embedding(17, 8)
        )
        (feed_forward): PositionwiseFeedForward(
          (w_1): Linear(in_features=64, out_features=2048, bias=True)
          (w_2): Linear(in_features=2048, out_features=64, bias=True)
          (layer_norm): LayerNorm((64,), eps=1e-06, elementwise_affine=True)
          (dropout_1): Dropout(p=0.1, inplace=False)
          (relu): ReLU()
          (dropout_2): Dropout(p=0.1, inplace=False)
        )
        (layer_norm): LayerNorm((64,), eps=1e-06, elementwise_affine=True)
        (dropout): Dropout(p=0.1, inplace=False)
      )
      (2): TransformerEncoderLayer(
        (self_attn): MultiHeadedAttention(
          (linear_keys): Linear(in_features=64, out_features=64, bias=True)
          (linear_values): Linear(in_features=64, out_features=64, bias=True)
          (linear_query): Linear(in_features=64, out_features=64, bias=True)
          (softmax): Softmax(dim=-1)
          (dropout): Dropout(p=0.1, inplace=False)
          (final_linear): Linear(in_features=64, out_features=64, bias=True)
          (relative_positions_embeddings): Embedding(17, 8)
        )
        (feed_forward): PositionwiseFeedForward(
          (w_1): Linear(in_features=64, out_features=2048, bias=True)
          (w_2): Linear(in_features=2048, out_features=64, bias=True)
          (layer_norm): LayerNorm((64,), eps=1e-06, elementwise_affine=True)
          (dropout_1): Dropout(p=0.1, inplace=False)
          (relu): ReLU()
          (dropout_2): Dropout(p=0.1, inplace=False)
        )
        (layer_norm): LayerNorm((64,), eps=1e-06, elementwise_affine=True)
        (dropout): Dropout(p=0.1, inplace=False)
      )
      (3): TransformerEncoderLayer(
        (self_attn): MultiHeadedAttention(
          (linear_keys): Linear(in_features=64, out_features=64, bias=True)
          (linear_values): Linear(in_features=64, out_features=64, bias=True)
          (linear_query): Linear(in_features=64, out_features=64, bias=True)
          (softmax): Softmax(dim=-1)
          (dropout): Dropout(p=0.1, inplace=False)
          (final_linear): Linear(in_features=64, out_features=64, bias=True)
          (relative_positions_embeddings): Embedding(17, 8)
        )
        (feed_forward): PositionwiseFeedForward(
          (w_1): Linear(in_features=64, out_features=2048, bias=True)
          (w_2): Linear(in_features=2048, out_features=64, bias=True)
          (layer_norm): LayerNorm((64,), eps=1e-06, elementwise_affine=True)
          (dropout_1): Dropout(p=0.1, inplace=False)
          (relu): ReLU()
          (dropout_2): Dropout(p=0.1, inplace=False)
        )
        (layer_norm): LayerNorm((64,), eps=1e-06, elementwise_affine=True)
        (dropout): Dropout(p=0.1, inplace=False)
      )
      (4): TransformerEncoderLayer(
        (self_attn): MultiHeadedAttention(
          (linear_keys): Linear(in_features=64, out_features=64, bias=True)
          (linear_values): Linear(in_features=64, out_features=64, bias=True)
          (linear_query): Linear(in_features=64, out_features=64, bias=True)
          (softmax): Softmax(dim=-1)
          (dropout): Dropout(p=0.1, inplace=False)
          (final_linear): Linear(in_features=64, out_features=64, bias=True)
          (relative_positions_embeddings): Embedding(17, 8)
        )
        (feed_forward): PositionwiseFeedForward(
          (w_1): Linear(in_features=64, out_features=2048, bias=True)
          (w_2): Linear(in_features=2048, out_features=64, bias=True)
          (layer_norm): LayerNorm((64,), eps=1e-06, elementwise_affine=True)
          (dropout_1): Dropout(p=0.1, inplace=False)
          (relu): ReLU()
          (dropout_2): Dropout(p=0.1, inplace=False)
        )
        (layer_norm): LayerNorm((64,), eps=1e-06, elementwise_affine=True)
        (dropout): Dropout(p=0.1, inplace=False)
      )
      (5): TransformerEncoderLayer(
        (self_attn): MultiHeadedAttention(
          (linear_keys): Linear(in_features=64, out_features=64, bias=True)
          (linear_values): Linear(in_features=64, out_features=64, bias=True)
          (linear_query): Linear(in_features=64, out_features=64, bias=True)
          (softmax): Softmax(dim=-1)
          (dropout): Dropout(p=0.1, inplace=False)
          (final_linear): Linear(in_features=64, out_features=64, bias=True)
          (relative_positions_embeddings): Embedding(17, 8)
        )
        (feed_forward): PositionwiseFeedForward(
          (w_1): Linear(in_features=64, out_features=2048, bias=True)
          (w_2): Linear(in_features=2048, out_features=64, bias=True)
          (layer_norm): LayerNorm((64,), eps=1e-06, elementwise_affine=True)
          (dropout_1): Dropout(p=0.1, inplace=False)
          (relu): ReLU()
          (dropout_2): Dropout(p=0.1, inplace=False)
        )
        (layer_norm): LayerNorm((64,), eps=1e-06, elementwise_affine=True)
        (dropout): Dropout(p=0.1, inplace=False)
      )
    )
    (layer_norm): LayerNorm((64,), eps=1e-06, elementwise_affine=True)
  )
  (decoder): TransformerDecoder(
    (embeddings): Embeddings(
      (make_embedding): Sequential(
        (emb_luts): Elementwise(
          (0): Embedding(28, 64, padding_idx=1)
        )
        (pe): PositionalEncoding(
          (dropout): Dropout(p=0, inplace=False)
        )
      )
    )
    (transformer_layers): ModuleList(
      (0): TransformerDecoderLayer(
        (self_attn): MultiHeadedAttention(
          (linear_keys): Linear(in_features=64, out_features=64, bias=True)
          (linear_values): Linear(in_features=64, out_features=64, bias=True)
          (linear_query): Linear(in_features=64, out_features=64, bias=True)
          (softmax): Softmax(dim=-1)
          (dropout): Dropout(p=0.1, inplace=False)
          (final_linear): Linear(in_features=64, out_features=64, bias=True)
          (relative_positions_embeddings): Embedding(17, 8)
        )
        (context_attn): MultiHeadedAttention(
          (linear_keys): Linear(in_features=64, out_features=64, bias=True)
          (linear_values): Linear(in_features=64, out_features=64, bias=True)
          (linear_query): Linear(in_features=64, out_features=64, bias=True)
          (softmax): Softmax(dim=-1)
          (dropout): Dropout(p=0.1, inplace=False)
          (final_linear): Linear(in_features=64, out_features=64, bias=True)
        )
        (feed_forward): PositionwiseFeedForward(
          (w_1): Linear(in_features=64, out_features=2048, bias=True)
          (w_2): Linear(in_features=2048, out_features=64, bias=True)
          (layer_norm): LayerNorm((64,), eps=1e-06, elementwise_affine=True)
          (dropout_1): Dropout(p=0.1, inplace=False)
          (relu): ReLU()
          (dropout_2): Dropout(p=0.1, inplace=False)
        )
        (layer_norm_1): LayerNorm((64,), eps=1e-06, elementwise_affine=True)
        (layer_norm_2): LayerNorm((64,), eps=1e-06, elementwise_affine=True)
        (drop): Dropout(p=0.1, inplace=False)
      )
      (1): TransformerDecoderLayer(
        (self_attn): MultiHeadedAttention(
          (linear_keys): Linear(in_features=64, out_features=64, bias=True)
          (linear_values): Linear(in_features=64, out_features=64, bias=True)
          (linear_query): Linear(in_features=64, out_features=64, bias=True)
          (softmax): Softmax(dim=-1)
          (dropout): Dropout(p=0.1, inplace=False)
          (final_linear): Linear(in_features=64, out_features=64, bias=True)
          (relative_positions_embeddings): Embedding(17, 8)
        )
        (context_attn): MultiHeadedAttention(
          (linear_keys): Linear(in_features=64, out_features=64, bias=True)
          (linear_values): Linear(in_features=64, out_features=64, bias=True)
          (linear_query): Linear(in_features=64, out_features=64, bias=True)
          (softmax): Softmax(dim=-1)
          (dropout): Dropout(p=0.1, inplace=False)
          (final_linear): Linear(in_features=64, out_features=64, bias=True)
        )
        (feed_forward): PositionwiseFeedForward(
          (w_1): Linear(in_features=64, out_features=2048, bias=True)
          (w_2): Linear(in_features=2048, out_features=64, bias=True)
          (layer_norm): LayerNorm((64,), eps=1e-06, elementwise_affine=True)
          (dropout_1): Dropout(p=0.1, inplace=False)
          (relu): ReLU()
          (dropout_2): Dropout(p=0.1, inplace=False)
        )
        (layer_norm_1): LayerNorm((64,), eps=1e-06, elementwise_affine=True)
        (layer_norm_2): LayerNorm((64,), eps=1e-06, elementwise_affine=True)
        (drop): Dropout(p=0.1, inplace=False)
      )
      (2): TransformerDecoderLayer(
        (self_attn): MultiHeadedAttention(
          (linear_keys): Linear(in_features=64, out_features=64, bias=True)
          (linear_values): Linear(in_features=64, out_features=64, bias=True)
          (linear_query): Linear(in_features=64, out_features=64, bias=True)
          (softmax): Softmax(dim=-1)
          (dropout): Dropout(p=0.1, inplace=False)
          (final_linear): Linear(in_features=64, out_features=64, bias=True)
          (relative_positions_embeddings): Embedding(17, 8)
        )
        (context_attn): MultiHeadedAttention(
          (linear_keys): Linear(in_features=64, out_features=64, bias=True)
          (linear_values): Linear(in_features=64, out_features=64, bias=True)
          (linear_query): Linear(in_features=64, out_features=64, bias=True)
          (softmax): Softmax(dim=-1)
          (dropout): Dropout(p=0.1, inplace=False)
          (final_linear): Linear(in_features=64, out_features=64, bias=True)
        )
        (feed_forward): PositionwiseFeedForward(
          (w_1): Linear(in_features=64, out_features=2048, bias=True)
          (w_2): Linear(in_features=2048, out_features=64, bias=True)
          (layer_norm): LayerNorm((64,), eps=1e-06, elementwise_affine=True)
          (dropout_1): Dropout(p=0.1, inplace=False)
          (relu): ReLU()
          (dropout_2): Dropout(p=0.1, inplace=False)
        )
        (layer_norm_1): LayerNorm((64,), eps=1e-06, elementwise_affine=True)
        (layer_norm_2): LayerNorm((64,), eps=1e-06, elementwise_affine=True)
        (drop): Dropout(p=0.1, inplace=False)
      )
      (3): TransformerDecoderLayer(
        (self_attn): MultiHeadedAttention(
          (linear_keys): Linear(in_features=64, out_features=64, bias=True)
          (linear_values): Linear(in_features=64, out_features=64, bias=True)
          (linear_query): Linear(in_features=64, out_features=64, bias=True)
          (softmax): Softmax(dim=-1)
          (dropout): Dropout(p=0.1, inplace=False)
          (final_linear): Linear(in_features=64, out_features=64, bias=True)
          (relative_positions_embeddings): Embedding(17, 8)
        )
        (context_attn): MultiHeadedAttention(
          (linear_keys): Linear(in_features=64, out_features=64, bias=True)
          (linear_values): Linear(in_features=64, out_features=64, bias=True)
          (linear_query): Linear(in_features=64, out_features=64, bias=True)
          (softmax): Softmax(dim=-1)
          (dropout): Dropout(p=0.1, inplace=False)
          (final_linear): Linear(in_features=64, out_features=64, bias=True)
        )
        (feed_forward): PositionwiseFeedForward(
          (w_1): Linear(in_features=64, out_features=2048, bias=True)
          (w_2): Linear(in_features=2048, out_features=64, bias=True)
          (layer_norm): LayerNorm((64,), eps=1e-06, elementwise_affine=True)
          (dropout_1): Dropout(p=0.1, inplace=False)
          (relu): ReLU()
          (dropout_2): Dropout(p=0.1, inplace=False)
        )
        (layer_norm_1): LayerNorm((64,), eps=1e-06, elementwise_affine=True)
        (layer_norm_2): LayerNorm((64,), eps=1e-06, elementwise_affine=True)
        (drop): Dropout(p=0.1, inplace=False)
      )
      (4): TransformerDecoderLayer(
        (self_attn): MultiHeadedAttention(
          (linear_keys): Linear(in_features=64, out_features=64, bias=True)
          (linear_values): Linear(in_features=64, out_features=64, bias=True)
          (linear_query): Linear(in_features=64, out_features=64, bias=True)
          (softmax): Softmax(dim=-1)
          (dropout): Dropout(p=0.1, inplace=False)
          (final_linear): Linear(in_features=64, out_features=64, bias=True)
          (relative_positions_embeddings): Embedding(17, 8)
        )
        (context_attn): MultiHeadedAttention(
          (linear_keys): Linear(in_features=64, out_features=64, bias=True)
          (linear_values): Linear(in_features=64, out_features=64, bias=True)
          (linear_query): Linear(in_features=64, out_features=64, bias=True)
          (softmax): Softmax(dim=-1)
          (dropout): Dropout(p=0.1, inplace=False)
          (final_linear): Linear(in_features=64, out_features=64, bias=True)
        )
        (feed_forward): PositionwiseFeedForward(
          (w_1): Linear(in_features=64, out_features=2048, bias=True)
          (w_2): Linear(in_features=2048, out_features=64, bias=True)
          (layer_norm): LayerNorm((64,), eps=1e-06, elementwise_affine=True)
          (dropout_1): Dropout(p=0.1, inplace=False)
          (relu): ReLU()
          (dropout_2): Dropout(p=0.1, inplace=False)
        )
        (layer_norm_1): LayerNorm((64,), eps=1e-06, elementwise_affine=True)
        (layer_norm_2): LayerNorm((64,), eps=1e-06, elementwise_affine=True)
        (drop): Dropout(p=0.1, inplace=False)
      )
      (5): TransformerDecoderLayer(
        (self_attn): MultiHeadedAttention(
          (linear_keys): Linear(in_features=64, out_features=64, bias=True)
          (linear_values): Linear(in_features=64, out_features=64, bias=True)
          (linear_query): Linear(in_features=64, out_features=64, bias=True)
          (softmax): Softmax(dim=-1)
          (dropout): Dropout(p=0.1, inplace=False)
          (final_linear): Linear(in_features=64, out_features=64, bias=True)
          (relative_positions_embeddings): Embedding(17, 8)
        )
        (context_attn): MultiHeadedAttention(
          (linear_keys): Linear(in_features=64, out_features=64, bias=True)
          (linear_values): Linear(in_features=64, out_features=64, bias=True)
          (linear_query): Linear(in_features=64, out_features=64, bias=True)
          (softmax): Softmax(dim=-1)
          (dropout): Dropout(p=0.1, inplace=False)
          (final_linear): Linear(in_features=64, out_features=64, bias=True)
        )
        (feed_forward): PositionwiseFeedForward(
          (w_1): Linear(in_features=64, out_features=2048, bias=True)
          (w_2): Linear(in_features=2048, out_features=64, bias=True)
          (layer_norm): LayerNorm((64,), eps=1e-06, elementwise_affine=True)
          (dropout_1): Dropout(p=0.1, inplace=False)
          (relu): ReLU()
          (dropout_2): Dropout(p=0.1, inplace=False)
        )
        (layer_norm_1): LayerNorm((64,), eps=1e-06, elementwise_affine=True)
        (layer_norm_2): LayerNorm((64,), eps=1e-06, elementwise_affine=True)
        (drop): Dropout(p=0.1, inplace=False)
      )
    )
    (layer_norm): LayerNorm((64,), eps=1e-06, elementwise_affine=True)
  )
  (generator): Generator(
    (proj): Linear(in_features=64, out_features=28, bias=True)
  )
)
Entering batch 0 with src shape torch.Size([751, 4, 1]) and tgt shape torch.Size([177, 4, 1]) from device 0
Entering batch 100 with src shape torch.Size([757, 4, 1]) and tgt shape torch.Size([217, 4, 1]) from device 0
Entering batch 200 with src shape torch.Size([1004, 3, 1]) and tgt shape torch.Size([311, 3, 1]) from device 0
Entering batch 300 with src shape torch.Size([504, 6, 1]) and tgt shape torch.Size([170, 6, 1]) from device 0
…
